…
model.layers.3.self_attn.q_proj: shape=(41, 1, 160), dtype=torch.float32
model.layers.3.self_attn.q_proj.arg%0: shape=(41, 1, 160), dtype=torch.float32
model.layers.3.self_attn.v_proj: shape=(41, 1, 32), dtype=torch.float32
model.layers.3.self_attn.v_proj.arg%0: shape=(41, 1, 160), dtype=torch.float32
model.norm: shape=(41, 1, 160), dtype=torch.float32
model.norm.arg%0: shape=(41, 1, 160), dtype=torch.float32
model.rotary_emb.arg%0: shape=(41, 1, 160), dtype=torch.float32
model.rotary_emb.arg%1: shape=(1, 1), dtype=torch.int64

# (Pdb) hf_model
# Llama4ForCausalLM(
#   (model): Llama4TextModel(
#     (embed_tokens): Embedding(19, 160)
#     (layers): ModuleList(
#       (0): Llama4TextDecoderLayer(
#         (self_attn): Llama4TextAttention(
#           (q_proj): Linear(in_features=160, out_features=160, bias=False)
#           (k_proj): Linear(in_features=160, out_features=32, bias=False)
#           (v_proj): Linear(in_features=160, out_features=32, bias=False)
#           (o_proj): Linear(in_features=160, out_features=160, bias=False)
#           (qk_norm): Llama4TextL2Norm(eps=0.01)
#         )
#         (feed_forward): Llama4TextMLP(
#           (gate_proj): Linear(in_features=160, out_features=23, bias=False)
#           (up_proj): Linear(in_features=160, out_features=23, bias=False)
#           (down_proj): Linear(in_features=23, out_features=160, bias=False)
#           (activation_fn): SiLU()
#         )
#         (input_layernorm): Llama4TextRMSNorm((160,), eps=0.01)
#         (post_attention_layernorm): Llama4TextRMSNorm((160,), eps=0.01)
#       )
#       (1): Llama4TextDecoderLayer(
#         (self_attn): Llama4TextAttention(
#           (q_proj): Linear(in_features=160, out_features=160, bias=False)
#           (k_proj): Linear(in_features=160, out_features=32, bias=False)
#           (v_proj): Linear(in_features=160, out_features=32, bias=False)
#           (o_proj): Linear(in_features=160, out_features=160, bias=False)
#           (qk_norm): Llama4TextL2Norm(eps=0.01)
#         )
#         (feed_forward): Llama4TextMoe(
#           (experts): Llama4TextExperts(
#             (act_fn): SiLU()
#           )
#           (router): Linear(in_features=160, out_features=3, bias=False)
#           (shared_expert): Llama4TextMLP(
#             (gate_proj): Linear(in_features=160, out_features=29, bias=False)
#             (up_proj): Linear(in_features=160, out_features=29, bias=False)
#             (down_proj): Linear(in_features=29, out_features=160, bias=False)
#             (activation_fn): SiLU()
#           )
#         )
#         (input_layernorm): Llama4TextRMSNorm((160,), eps=0.01)
#         (post_attention_layernorm): Llama4TextRMSNorm((160,), eps=0.01)
#       )
#       (2): Llama4TextDecoderLayer(
#         (self_attn): Llama4TextAttention(
#           (q_proj): Linear(in_features=160, out_features=160, bias=False)
#           (k_proj): Linear(in_features=160, out_features=32, bias=False)
#           (v_proj): Linear(in_features=160, out_features=32, bias=False)
#           (o_proj): Linear(in_features=160, out_features=160, bias=False)
#           (qk_norm): Llama4TextL2Norm(eps=0.01)
#         )
#         (feed_forward): Llama4TextMLP(
#           (gate_proj): Linear(in_features=160, out_features=23, bias=False)
#           (up_proj): Linear(in_features=160, out_features=23, bias=False)
#           (down_proj): Linear(in_features=23, out_features=160, bias=False)
#           (activation_fn): SiLU()
#         )
#         (input_layernorm): Llama4TextRMSNorm((160,), eps=0.01)
#         (post_attention_layernorm): Llama4TextRMSNorm((160,), eps=0.01)
#       )
#       (3): Llama4TextDecoderLayer(
#         (self_attn): Llama4TextAttention(
#           (q_proj): Linear(in_features=160, out_features=160, bias=False)
#           (k_proj): Linear(in_features=160, out_features=32, bias=False)
#           (v_proj): Linear(in_features=160, out_features=32, bias=False)
#           (o_proj): Linear(in_features=160, out_features=160, bias=False)
#         )
#         (feed_forward): Llama4TextMoe(
#           (experts): Llama4TextExperts(
#             (act_fn): SiLU()
#           )
#           (router): Linear(in_features=160, out_features=3, bias=False)
#           (shared_expert): Llama4TextMLP(
#             (gate_proj): Linear(in_features=160, out_features=29, bias=False)
#             (up_proj): Linear(in_features=160, out_features=29, bias=False)
#             (down_proj): Linear(in_features=29, out_features=160, bias=False)
#             (activation_fn): SiLU()
#           )
#         )
#         (input_layernorm): Llama4TextRMSNorm((160,), eps=0.01)
#         (post_attention_layernorm): Llama4TextRMSNorm((160,), eps=0.01)
#       )
#     )
#     (norm): Llama4TextRMSNorm((160,), eps=0.01)
#     (rotary_emb): Llama4TextRotaryEmbedding()
#   )
#   (lm_head): Linear(in_features=160, out_features=19, bias=False)
# )
